…
input_1 (InputLayer)            [(None, None, 40)]   0                                            
__________________________________________________________________________________________________
gru (GRU)                       [(None, None, 256),  228864      input_1[0][0]                    
__________________________________________________________________________________________________
gru_1 (GRU)                     [(None, 256), (None, 394752      gru[1][0]                        
__________________________________________________________________________________________________
tf_op_layer_concat (TensorFlowO (None, 512)          0           gru[1][1]                        
                                                                 gru_1[1][1]                      
__________________________________________________________________________________________________
dense (Dense)                   (None, 256)          131328      tf_op_layer_concat[1][0]         
==================================================================================================
Total params: 754,944
Trainable params: 0
Non-trainable params: 754,944
__________________________________________________________________________________________________

Model: "sequential"
_________________________________________________________________
Layer (type)                 Output Shape              Param #   
=================================================================
model (Model)                (None, 256)               754944    
_________________________________________________________________
dropout (Dropout)            (None, 256)               0         
_________________________________________________________________
dense (Dense)                (None, 150)               38550     
_________________________________________________________________
dropout_1 (Dropout)          (None, 150)               0         
_________________________________________________________________
dense_1 (Dense)              (None, 150)               22650     
_________________________________________________________________
dropout_2 (Dropout)          (None, 150)               0         
_________________________________________________________________
dense_2 (Dense)              (None, 35)                5285      
=================================================================
Total params: 821,429
Trainable params: 66,485
Non-trainable params: 754,944
_________________________________________________________________
