…
 val_accuracy: 0.8992 - lr: 0.0010

Done


TRAINING INFORMATION:
Network model to train: cnn_model1
Model version to train: 0.1
Number of Mel features: 40
Spectrograms timesteps: 98
Time length of each frame: 0.03
Time step/shift of each frame: 0.01
Batch size: 64
Number of epochs: 10

===== TOTAL TRAINING TIME: 866.7 sec =====

Model saved to disk


Model: "sequential"
_________________________________________________________________
Layer (type)                 Output Shape              Param #   
=================================================================
conv2d (Conv2D)              (None, 98, 40, 32)        320       
_________________________________________________________________
activation (Activation)      (None, 98, 40, 32)        0         
_________________________________________________________________
conv2d_1 (Conv2D)            (None, 96, 38, 32)        9248      
_________________________________________________________________
activation_1 (Activation)    (None, 96, 38, 32)        0         
_________________________________________________________________
max_pooling2d (MaxPooling2D) (None, 48, 19, 32)        0         
_________________________________________________________________
dropout (Dropout)            (None, 48, 19, 32)        0         
_________________________________________________________________
conv2d_2 (Conv2D)            (None, 48, 19, 64)        18496     
_________________________________________________________________
activation_2 (Activation)    (None, 48, 19, 64)        0         
_________________________________________________________________
conv2d_3 (Conv2D)            (None, 46, 17, 64)        36928     
_________________________________________________________________
activation_3 (Activation)    (None, 46, 17, 64)        0         
_________________________________________________________________
max_pooling2d_1 (MaxPooling2 (None, 23, 8, 64)         0         
_________________________________________________________________
dropout_1 (Dropout)          (None, 23, 8, 64)         0         
_________________________________________________________________
flatten (Flatten)            (None, 11776)             0         
_________________________________________________________________
dense (Dense)                (None, 256)               3014912   
_________________________________________________________________
activation_4 (Activation)    (None, 256)               0         
_________________________________________________________________
dropout_2 (Dropout)          (None, 256)               0         
_________________________________________________________________
dense_1 (Dense)              (None, 128)               32896     
_________________________________________________________________
activation_5 (Activation)    (None, 128)               0         
_________________________________________________________________
dropout_3 (Dropout)          (None, 128)               0         
_________________________________________________________________
dense_2 (Dense)              (None, 35)                4515      
_________________________________________________________________
activation_6 (Activation)    (None, 35)                0         
=================================================================
Total params: 3,117,315
Trainable params: 3,117,315
Non-trainable params: 0
_________________________________________________________________

